CS771A/Assignments/A2/mysol/final/model_SCD.npy (npy, 512 bytes, 1 tensors)

array f8 [1, 54]
-5.772545332038924 0.8058038269494536 0.28565708437935433 1.1647713716251082 0.190411915632445 -0.09619741816132493 0.1588212185842675 3.7145152695520087
-0.36003161583591053 1.2166168579987195 -0.9545769922131642 -0.011477237238809945 -1.1763459683356987 -3.4260340395510123 -3.0686594958847024 -1.4375638571774325
-1.2485312527984302 -0.7434938771142529 -3.2240956807032566 -0.06449817833416943 1.6356621132267892 0.9074606570596 0.21713689066758665 0.2365332126711236
1.0870969536053576 1.0807022502862416 1.4654754011818192 -3.51669420634353 -0.13847031817726185 0.24483842082970686 -1.822810495534277 -0.08216689126227694
1.0277809157795215 -0.5604254992869403 -1.7245085655849866 0.5070967685067844 -0.7440114457203933 0.07701739164227593 1.7183064227865117 1.1509777253076972
0.1328350193570981 2.0125595877551397 0.8001327428370074 0.4781522772809258 0.36813203543384904 0.08422720530908558 -0.12581955736435185 1.689222718281047
-1.3520178556059257 -0.019829633623333905 -0.6520537340575799 -0.47678430204414024 -0.7843959513959881 -0.7029501491306336
00000000: 7923 9f1f 1617 17c0 5eaa 771b 25c9 e93f
00000010: 2aec d1a6 3448 d23f 8326 474e e7a2 f23f
00000020: ed7c 34eb 6a5f c83f 2c68 f6dc 64a0 b8bf
00000030: 5a7a ddf1 4054 c43f 7ebf 19c8 53b7 0d40
00000040: 31a4 e20b c20a d7bf 51de 0d3d 4377 f33f
00000050: 0e3a 620c e58b eebf a085 b6b4 6081 87bf
00000060: 4e88 6c26 50d2 f2bf bfd5 d688 8468 0bc0
00000070: c013 8b59 9d8c 08c0 aad1 87f5 4200 f7bf
00000080: c5d9 2ce8 fbf9 f3bf 356c dfab b3ca e7bf
00000090: de5c 1ead f2ca 09c0 14ca 98de f382 b0bf
000000a0: 4ed8 3909 ac2b fa3f f048 8fee ea09 ed3f
000000b0: 9b11 1642 24cb cb3f 948e 6b66 b846 ce3f
000000c0: 520f 75c6 bf64 f13f 9616 5b71 8e4a f13f
000000d0: bdb1 9255 9672 f73f a039 7292 3022 0cc0
000000e0: f4de 0438 65b9 c1bf c449 2289 dd56 cf3f
000000f0: 1f01 9256 3b2a fdbf 6814 c9ae e308 b5bf
00000100: 989d cb66 ca71 f03f 2905 e974 01ef e1bf
00000110: 0ec0 2d4b 9697 fbbf 029b 9400 233a e03f
00000120: 2700 6717 f1ce e7bf 17a9 536a 69b7 b33f
00000130: 40ff 25e0 2e7e fb3f beef 899e 676a f23f
00000140: 5d7d f3e7 bc00 c13f cb46 55d7 b819 0040
00000150: ff32 5efb af9a e93f ee7c 5b02 0c9a de3f
00000160: 4317 33ab 798f d73f 816a 3c04 ea8f b53f
00000170: fedd 09f2 da1a c0bf 4cd6 aa66 0e07 fb3f
00000180: d0f7 9679 dda1 f5bf 0293 9d2f 384e 94bf
00000190: 3362 e0ca 9fdd e4bf 30a6 214e a283 debf
000001a0: d389 cb89 c519 e9bf 2880 a74f 917e e6bf
