CS771A/Assignments/A2/mysol/final/model_GD.npy (npy, 512 bytes, 1 tensors)

array f8 [1, 54]
000000 b2 aa a6 ed 4a ca 20 c0 b6 ce 03 64 36 0a 9f bf
       -8.395102907748285 -0.030312394956992526
000010 97 50 7d b0 a0 f1 c6 3f de bd 58 ec 91 8a f5 3f
       0.179248891998786 1.3463305694857506
000020 4a 10 98 b6 62 e8 d3 3f fb a3 9f c7 97 04 e8 3f
       0.3110586913246648 0.7505606554888112
000030 b7 a5 f0 b1 de 65 f1 3f b6 ae 1a e5 3e dd 00 40
       1.0873705817015045 2.108030118824753
000040 27 1e f8 a8 fc 34 e0 3f a0 66 13 d7 c9 02 85 bf
       0.5064681339435467 -0.01025922477349478
000050 82 3d c5 42 92 1a ee 3f ef 07 70 2b d4 07 f2 3f
       0.9407435707197893 1.1269113251478264
000060 64 58 76 1f b8 76 e8 3f b7 7c e4 07 1e b5 09 c0
       0.7644920935151842 -3.2134361855129003
000070 07 0b 7c f6 db f0 e0 bf 99 e8 b2 37 6d 8d 05 c0
       -0.5294017614508854 -2.6940559722398345
000080 b7 8a d2 7f b2 d4 df bf d0 5f 88 6b 37 7c 03 c0
       -0.49735701067599386 -2.435652580355942
000090 1c 1c 5a d9 69 2f db bf 44 86 f0 06 4a 2a e0 3f
       -0.4247688887193719 0.5051622520006238
0000a0 0a 3b 10 f2 5e a2 d7 3f 95 0b d5 b0 7f 1b d6 3f
       0.36928533209804526 0.3454283930661231
0000b0 27 9c a8 af 92 e6 af 3f 45 98 af 26 68 9e d0 3f
       0.06230600733061236 0.25966838624879457
0000c0 aa dc 4a 39 f6 9e e3 3f e7 7e 06 6b a5 0e e7 3f
       0.613154518031384 0.720537861856397
0000d0 8d 35 b3 d2 c7 71 f0 3f 23 12 c2 dc 64 57 e9 bf
       1.0277784567327644 -0.7919182120973044
0000e0 fa 56 a8 99 a1 f6 3c bf 7e 0d 37 ad ce a8 d5 3f
       -0.0004419464618491267 0.3384281817963809
0000f0 98 a4 a6 50 b0 f7 fb bf 84 91 07 59 25 51 ca bf
       -1.7479708815028854 -0.20560137602945983
000100 a6 c9 78 a3 89 c0 db bf f9 47 4e 4f 79 36 c7 3f
       -0.43362656559033963 0.1813499104724199
000110 ae 01 ba 7c 05 b9 eb bf 52 c5 6d 74 83 fe d6 bf
       -0.8663356243196654 -0.35928427095412474
000120 09 63 27 dd 39 a3 c5 bf 22 42 6c d3 9e 94 d2 3f
       -0.16904376314666816 0.2903210701634028
000130 65 f3 ff 93 8b 6e ee 3f 13 d3 b9 0b 39 dd ec 3f
       0.950994290411114 0.9020047406216655
000140 a5 4e 4c df 78 95 c7 bf b5 99 a2 87 8d 23 ec 3f
       -0.18424902823664016 0.8793399476169755
000150 ea 50 e2 da 6b 16 e6 3f 26 79 65 2d 37 d4 e3 3f
       0.6902369761542364 0.6196552168510479
000160 85 57 96 7c 50 98 e4 3f 95 ea 95 cf 37 07 f1 3f
       0.6435930665345359 1.064262209779064
000170 11 3f 3f ef 4d de e9 3f ce ae 84 94 44 80 f5 3f
       0.8083867714685501 1.343815403127269
000180 aa 29 5e a6 a8 96 e1 bf a3 0d a4 e5 aa 13 b7 bf
       -0.5496409654017971 -0.09014385324922229
000190 1e 77 5d 1f c8 26 cd bf 19 bd a3 2f c1 ea ca bf
       -0.22774602443217246 -0.2102891428580527
0001a0 62 ef f9 fe a0 22 d8 bf 61 98 66 60 d3 e6 c9 bf
       -0.37711357975034876 -0.20235674101894843
